nasa_qml_model1.pt (torch, 4153 bytes, 6 tensors)

pre.0.weight f4 [6, 6]
0.78271854 0.018235 -0.4635697 0.4754714 -1.3902954 0.16576037 1.1981807 -0.13681878
0.48290163 0.35585302 -0.008010919 -0.028392406 -0.10696967 -1.3108841 -0.2438182 0.15231216
0.56489533 -0.34180704 -4.174058 0.21077158 0.14670569 1.177176 0.03327711 0.5445502
-0.52584314 -1.0654464 0.27626187 -6.4046702 -0.48982698 -0.08392363 -0.043465853 -0.16946702
-3.0764084 0.89418155 0.19808967 1.0943311
00000000: 3e60 483f 9161 953c 0259 edbe fd70 f33e
00000010: 33f5 b1bf 16bd 293e fc5d 993f 391a 0cbe
00000020: e23e f73e 5e32 b63e 3b40 03bc 3197 e8bc
00000030: ea12 dbbd 0dcb a7bf 7aab 79be b8f7 1b3e
00000040: fb9c 103f 5501 afbe e291 85c0 81d4 573e
00000050: 043a 163e b4ad 963f 944d 083d a467 0b3f
00000060: a89d 06bf 8c60 88bf 3272 8d3e 0ff3 ccc0
00000070: 9aca fabe 27e0 abbd 4009 32bd c388 2dbe
00000080: e0e3 44c0 15e9 643f 05d8 4a3e 0b13 8c3f

pre.0.bias f4 [6]
-0.43885627 0.14815123 -1.8553386 0.03859323 -0.23342733 0.30660826
00000000: c5b1 e0be f5b4 173e bc7b edbf ef13 1e3d
00000010: 9307 6fbe c2fb 9c3e

q_layer.weights f4 [2, 6]
0.0076832725 4.4409227 1.4101623 3.7546208 -0.053421568 6.278413 3.133777 1.129021
4.257541 3.5215096 3.1716723 0.005285154
00000000: f6c3 fb3b 0a1c 8e40 3380 b43f b54b 7040
00000010: 93d0 5abd c2e8 c840 cd8f 4840 c383 903f
00000020: c73d 8840 6a60 6140 aefc 4a40 162f ad3b

post.0.weight f4 [16, 6]
-0.95801103 1.9339267 0.38804108 -3.5466528 0.9724311 3.2664812 -0.83292973 1.4588991
-0.05000598 -2.5664227 0.54141325 1.9926573 0.20004088 0.09927346 -0.20654045 -0.16117725
0.28173903 -0.098590344 0.78738433 -1.0525773 -0.05552217 1.8923037 -0.86443937 -1.0352651
1.1395811 -1.3549699 -0.3758824 1.9537333 -0.780743 -1.6357752 1.9936157 0.5387275
0.6437717 -0.4217862 -2.1738966 -0.25304604 0.124905534 0.20337711 0.061439887 -0.046069145
-0.051773112 -0.15173127 -0.046658438 0.024258656 -0.07530734 0.03902255 -0.06901196 0.08627463
0.7782879 -0.07347779 0.2069558 -1.6395637 0.6191191 -1.7359473 0.34829748 -1.7158927
-1.6277803 2.41448 -0.7544971 -0.53071856 -0.50309753 -1.1903657 -0.41225666 -3.3108172
-0.28740975 2.6456137 0.37488228 0.15392005 0.13509509 -0.22942483 -0.018716633 -0.21878488
-0.42158794 1.1568996 0.09425586 -2.7907093 0.6806451 1.9718809 1.0572406 -2.3299432
-0.20852001 1.2723686 -0.9039225 -0.48690215 0.24326926 0.92727554 1.9393356 1.7297935
0.32483944 -1.3531145 1.9506077 1.6197492 -0.23395066 1.4562598 0.29905778 -0.86656237
00000000: 3640 75bf e98a f73f 52ad c63e 5cfc 62c0
00000010: 3ff1 783f 070e 5140 e23a 55bf 35bd ba3f
00000020: 12d3 4cbd 4540 24c0 0f9a 0a3f 650f ff3f
00000030: 84d7 4c3e e24f cb3d 577f 53be a60b 25be
00000040: 1940 903e bce9 c9bd 0592 493f daba 86bf
00000050: 376b 63bd 0237 f23f e64b 5dbf 9183 84bf
00000060: cbdd 913f a76f adbf a873 c0be ef13 fa3f
00000070: c6de 47bf 1561 d1bf cd2e ff3f 0cea 093f
00000080: 39ce 243f 5cf4 d7be 1f21 0bc0 408f 81be
00000090: 79ce ff3d 1742 503e 64a8 7b3d 00b3 3cbd
000000a0: 0b10 54bd 715f 1bbe eb1c 3fbd 17ba c63c
000000b0: bc3a 9abd 1cd6 1f3d 2456 8dbd c1b0 b03d
000000c0: e03d 473f 867b 96bd 39ec 533e 39dd d1bf
000000d0: 977e 1e3f 8533 debf 0c54 b23e 5fa2 dbbf
000000e0: 1b5b d0bf d786 1a40 b926 41bf 2cdd 07bf
000000f0: 00cb 00bf e75d 98bf 4e13 d3be 6ee4 53c0
00000100: 5f27 93be bc51 2940 92f0 bf3e 389d 1d3e
00000110: 5e56 0a3e 58ee 6abe a053 99bc 2509 60be
00000120: 60da d7be 4915 943f 3709 c13d fb9a 32c0
00000130: c23e 2e3f 9866 fc3f a953 873f ca1d 15c0
00000140: 4586 55be f9dc a23f 7767 67bf 3d4b f9be
00000150: 941b 793e ee61 6d3f 263c f83f e069 dd3f
00000160: 5b51 a63e db32 adbf 83ad f93f f153 cf3f
00000170: c390 6fbe b966 ba3f 1a1e 993e 08d7 5dbf

post.0.bias f4 [16]
-0.28598422 0.10684587 -0.27660105 0.49798158 0.6751952 -0.11998459 -0.38153076 -0.122046754
-0.18357106 0.36776447 -0.17303744 -0.3911608 -0.042440854 0.6393102 -0.65813696 0.008134563
00000000: 866c 92be 02d2 da3d a79e 8dbe 71f7 fe3e
00000010: 98d9 2c3f 7bba f5bd 0058 c3be a6f3 f9bd
00000020: 0dfa 3bbe a04b bc3e ba30 31be 3a46 c8be
00000030: 76d6 2dbd d5a9 233f aa7b 28bf d546 053c

post.2.weight f4 [1, 16]
1.1973819 0.6095456 0.13676456 -1.1804188 -1.2872329 -0.9061177 0.027797252 0.061639234
-1.185772 1.5154853 -4.1693196 0.048545998 0.50814635 -1.3870416 -3.3722713 1.0519155
00000000: cf43 993f 2e0b 1c3f 020c 0c3e f717 97bf
00000010: 0cc4 a4bf 54f7 67bf 10b7 e33c 6c79 7c3d
00000020: 60c7 97bf 6cfb c13f 116b 85c0 2bd8 463d
00000030: e115 023f 948a b1bf 4bd3 57c0 2ba5 863f
